…
==========================================================================================================================================================================================] - 0s 142us/sample - loss: 0.6205 - accuracy: 0.6510
[31m-      accuracy: 65.10416865348816

[0m[34m## replaced /cells/35/execution_count:[0m
[31m-  22
[32m+  17

[0m[34m## modified /cells/35/outputs/0/text:[0m
[36m@@ -4,9 +4,9 @@[m [mLayer (type)                 Output Shape              Param #[m
 =================================================================[m
 Dense1 (Dense)               (None, 4)                 36        [m
 _________________________________________________________________[m
[31m-dense_6 (Dense)              (None, 3)                 15        [m
[32m+[m[32mdense_2 (Dense)              (None, 3)                 15[m[41m        [m
 _________________________________________________________________[m
[31m-dense_7 (Dense)              (None, 1)                 4         [m
[32m+[m[32mdense_3 (Dense)              (None, 1)                 4[m[41m         [m
 =================================================================[m
 Total params: 55[m
 Trainable params: 55[m

[0m[34m## replaced /cells/36/execution_count:[0m
[31m-  24
[32m+  18

[0m[34m## modified /cells/36/outputs/0/data/text/plain:[0m
[31m-  <tensorflow.python.keras.callbacks.History at 0x7fb4306ce2e8>
[32m+  <tensorflow.python.keras.callbacks.History at 0x7faaf6777668>
…
==================================================================================================================================================================================================] - 0s 68us/sample - loss: 0.5155 - accuracy: 0.7578
[31m-      accuracy: 75.78125

[0m[34m## replaced /cells/39/execution_count:[0m
[31m-  29
[32m+  20

[0m[34m## modified /cells/39/outputs/0/text:[0m
[36m@@ -4,11 +4,11 @@[m [mLayer (type)                 Output Shape              Param #[m
 =================================================================[m
 Dense1 (Dense)               (None, 4)                 36        [m
 _________________________________________________________________[m
[31m-dense_8 (Dense)              (None, 3)                 15        [m
[32m+[m[32mdense_4 (Dense)              (None, 3)                 15[m[41m        [m
 _________________________________________________________________[m
[31m-dense_9 (Dense)              (None, 3)                 12        [m
[32m+[m[32mdense_5 (Dense)              (None, 3)                 12[m[41m        [m
 _________________________________________________________________[m
[31m-dense_10 (Dense)             (None, 1)                 4         [m
[32m+[m[32mdense_6 (Dense)              (None, 1)                 4[m[41m         [m
 =================================================================[m
 Total params: 67[m
 Trainable params: 67[m

[0m[34m## replaced /cells/40/execution_count:[0m
[31m-  30
[32m+  21

[0m[34m## modified /cells/40/outputs/0/data/text/plain:[0m
[31m-  <tensorflow.python.keras.callbacks.History at 0x7fb430342ac8>
[32m+  <tensorflow.python.keras.callbacks.History at 0x7faaf639d940>
…
=====================================================================] - 0s 169us/sample - loss: 0.6716 - accuracy: 0.6510
[31m-  output:
[31m-    output_type: execute_result
[31m-    execution_count: 31
[31m-    data:
[31m-      text/plain: [0.639621468881766, 0.6510417]

[0m[34m## replaced /cells/43/execution_count:[0m
[31m-  32
[32m+  24

[0m[34m## modified /cells/43/outputs/0/text:[0m
[36m@@ -4,11 +4,11 @@[m [mLayer (type)                 Output Shape              Param #[m
 =================================================================[m
 Dense1 (Dense)               (None, 8)                 72        [m
 _________________________________________________________________[m
[31m-dense_11 (Dense)             (None, 8)                 72        [m
[32m+[m[32mdense_10 (Dense)             (None, 8)                 72[m[41m        [m
 _________________________________________________________________[m
[31m-dense_12 (Dense)             (None, 8)                 72        [m
[32m+[m[32mdense_11 (Dense)             (None, 8)                 72[m[41m        [m
 _________________________________________________________________[m
[31m-dense_13 (Dense)             (None, 1)                 9         [m
[32m+[m[32mdense_12 (Dense)             (None, 1)                 9[m[41m         [m
 =================================================================[m
 Total params: 225[m
 Trainable params: 225[m

[0m[34m## replaced /cells/44/execution_count:[0m
[31m-  37
[32m+  25

[0m[34m## modified /cells/44/outputs/0/text:[0m
[36m@@ -1,501 +1,501 @@[m
 Train on 691 samples, validate on 77 samples[m
 Epoch 1/250[m
[31m-691/691 [==============================] - 0s 132us/sample - loss: 0.4450 - accuracy: 0.7844 - val_loss: 0.5430 - val_accuracy: 0.7532[m
…
